…
":{"status":"ok","timestamp":1645683392405,"user_tz":-540,"elapsed":3974,"user":{"displayName":"고양이","photoUrl":"https://lh3.googleusercontent.com/a/default-user=s64","userId":"02136590562464750302"}},"outputId":"62944ee7-9a1a-4e39-edd6-04b1a57e733d"},"execution_count":null,"outputs":[{"output_type":"stream","name":"stdout","text":["Model: \"sequential\"\n","_________________________________________________________________\n"," Layer (type)                Output Shape              Param #   \n","=================================================================\n"," conv2d (Conv2D)             (None, 128, 128, 32)      896       \n","                                                                 \n"," max_pooling2d (MaxPooling2D  (None, 64, 64, 32)       0         \n"," )                                                               \n","                                                                 \n"," dropout (Dropout)           (None, 64, 64, 32)        0         \n","                                                                 \n"," conv2d_1 (Conv2D)           (None, 64, 64, 64)        18496     \n","                                                                 \n"," max_pooling2d_1 (MaxPooling  (None, 32, 32, 64)       0         \n"," 2D)                                                             \n","                                                                 \n"," dropout_1 (Dropout)         (None, 32, 32, 64)        0         \n","                                                                 \n"," flatten (Flatten)           (None, 65536)             0         \n","                                                                 \n"," dense (Dense)               (None, 64)                4194368   \n","                                                                 \n"," dropout_2 (Dropout)         (None, 64)                0         \n","                                                                 \n"," dense_1 (Dense)             (None, 3)                 195       \n","                                                                 \n","=================================================================\n","Total params: 4,213,955\n","Trainable params: 4,213,955\n","Non-trainable params: 0\n","_________________________________________________________________\n"]}]},{"cell_type":"code","source":["'''\n","# Sequential API를 사용하여 model 구성\n","def create_m
…
